…
span class="line">215</span><br><span class="line">216</span><br></pre></td><td class="code"><pre><span class="line">FasterRCNN(</span><br><span class="line">  (transform): GeneralizedRCNNTransform(</span><br><span class="line">      Normalize(mean=[0.485, 0.456, 0.406], std=[0.229, 0.224, 0.225])</span><br><span class="line">      Resize(min_size=(800,), max_size=1333, mode=&#x27;bilinear&#x27;)</span><br><span class="line">  )</span><br><span class="line">  (backbone): BackboneWithFPN(</span><br><span class="line">    (body): IntermediateLayerGetter(</span><br><span class="line">      (conv1): Conv2d(3, 64, kernel_size=(7, 7), stride=(2, 2), padding=(3, 3), bias=False)</span><br><span class="line">      (bn1): FrozenBatchNorm2d(64)</span><br><span class="line">      (relu): ReLU(inplace=True)</span><br><span class="line">      (maxpool): MaxPool2d(kernel_size=3, stride=2, padding=1, dilation=1, ceil_mode=False)</span><br><span class="line">      (layer1): Sequential(</span><br><span class="line">        (0): Bottleneck(</span><br><span class="line">          (conv1): Conv2d(64, 64, kernel_size=(1, 1), stride=(1, 1), bias=False)</span><br><span class="line">          (bn1): FrozenBatchNorm2d(64)</span><br><span class="line">          (conv2): Conv2d(64, 64, kernel_size=(3, 3), stride=(1, 1), padding=(1, 1), bias=False)</span><br><span class="line">          (bn2): FrozenBatchNorm2d(64)</span><br><span class="line">          (conv3): Conv2d(64, 256, kernel_size=(1, 1), stride=(1, 1), bias=False)</span><br><span class="line">          (bn3): FrozenBatchNorm2d(256)</span><br><span class="line">          (relu): ReLU(inplace=True)</span><br><span class="line">          (downsample): Sequential(</span><br><span class="line">            (0): Conv2d(64, 256, kernel_size=(1, 1), stride=(1, 1), bias=False)</span><br><span class="line">            (1): FrozenBatchNorm2d(256)</span><br><span class="line">          )</span><br><span class="line">        )</span><br><span class="line">        (1): Bottleneck(</span><br><span class="line">          (conv1): Conv2d(256, 64, kernel_size=(1, 1), stride=(1, 1), bias=False)</span><br><span class="line">          (bn1): FrozenBatchNorm2d(64)</span><br><span class="line">          (conv2): Conv2d(64, 64, kernel_size=(3, 3), stride=(1, 1), padding=(1, 1), bias=False)</span><br><span class="line">          (bn2): FrozenBatchNorm2d(64)</span><br><span class="line">          (conv3): Conv2d(64, 256, kernel_size=(1, 1), stride=(1, 1), bias=False)</span><br><span class="line">          (bn3): FrozenBatchNorm2d(256)</span><br><span class="line">          (relu): ReLU(inplace=True)</span><br><span class="line">        )</span><br><span class="line">        (2): Bottleneck(</span><br><span class="line">          (conv1): Conv2d(256, 64, kernel_size=(1, 1), stride=(1, 1), bias=False)</span><br><span class="line">          (bn1): FrozenBatchNorm2d(64)</span><br><span class="line">          (conv2): Conv2d(64, 64, kernel_size=(3, 3), stride=(1, 1), padding=(1, 1), bias=False)</span><br><span class="line">          (bn2): FrozenBatchNorm2d(64)</span><br><span class="line">          (conv3): Conv2d(64, 256, kernel_size=(1, 1), stride=(1, 1), bias=False)</span><br><span class="line">          (bn3): FrozenBatchNorm2d(256)</span><br><span class="line">          (relu): ReLU(inplace=True)</span><br><span class="line">        )</span><br><span class="line">      )</span><br><span class="line">      (layer2): Sequential(</span><br><span class="line">        (0): Bottleneck(</span><br><span class="line">          (conv1): Conv2d(256, 128, kernel_size=(1, 1), stride=(1, 1), bias=False)</span><br><span class="line">          (bn1): FrozenBatchNorm2d(128)</span><br><span class="line">          (conv2): Conv2d(128, 128, kernel_size=(3, 3), stride=(2, 2), padding=(1, 1), bias=False)</span><br><span class="line">          (bn2): FrozenBatchNorm2d(128)</span><br><span class="line">          (conv3): Conv2d(128, 512, kernel_size=(1, 1), stride=(1, 1), bias=False)</span><br><span class="line">          (bn3): FrozenBatchNorm2d(512)</span><br><span class="line">          (relu): ReLU(inplace=True)</span><br><span class="line">          (downsample): Sequential(</span><br><span class="line">            (0): Conv2d(256, 512, kernel_size=(1, 1), stride=(2, 2), bias=False)</span><br><span class="line">            (1): FrozenBatchNorm2d(512)</span><br><span class="line">          )</span><br><span class="line">        )</span><br><span class="line">        (1): Bottleneck(</span><br><span class="line">          (conv1): Conv2d(512, 128, kernel_size=(1, 1), stride=(1, 1), bias=False)</span><br><span class="line">          (bn1): FrozenBatchNorm2d(128)</span><br><span class="line">          (conv2): Conv2d(128, 128, kernel_size=(3, 3), stride=(1, 1), padding=(1, 1), bias=False)</span><br><span class="line">          (bn2): FrozenBatchNorm2d(128)</span><br><span class="line">          (conv3): Conv2d(128, 512, kernel_size=(1, 1), stride=(1, 1), bias=False)</span><br><span class="line">          (bn3): FrozenBatchNorm2d(512)</span><br><span class="line">          (relu): ReLU(inplace=True)</span><br><span class="line">        )</span><br><span class="line">        (2): Bottleneck(</span><br><span class="line">          (conv1): Conv2d(512, 128, kernel_size=(1, 1), stride=(1, 1), bias=False)</span><br><span class="line">          (bn1): FrozenBatchNorm2d(128)</span><br><span class="line">          (conv2): Conv2d(128, 128, kernel_size=(3, 3), stride=(1, 1), padding=(1, 1), bias=False)</span><br><span class="line">          (bn2): FrozenBatchNorm2d(128)</span><br><span class="line">          (conv3): Conv2d(128, 512, kernel_size=(1, 1), stride=(1, 1), bias=False)</span><br><span class="line">          (bn3): FrozenBatchNorm2d(512)</span><br><span class="line">          (relu): ReLU(inplace=True)</span><br><span class="line">        )</span><br><span class="line">        (3): Bottleneck(</span><br><span class="line">          (conv1): Conv2d(512, 128, kernel_size=(1, 1), stride=(1, 1), bias=False)</span><br><span class="line">          (bn1): FrozenBatchNorm2d(128)</span><br><span class="line">          (conv2): Conv2d(128, 128, kernel_size=(3, 3), stride=(1, 1), padding=(1, 1), bias=False)</span><br><span class="line">          (bn2): FrozenBatchNorm2d(128)</span><br><span class="line">          (conv3): Conv2d(128, 512, kernel_size=(1, 1), stride=(1, 1), bias=False)</span><br><span class="line">          (bn3): FrozenBatchNorm2d(512)</span><br><span class="line">          (relu): ReLU(inplace=True)</span><br><span class="line">        )</span><br><span class="line">      )</span><br><span class="line">      (layer3): Sequential(</span><br><span class="line">        (0): Bottleneck(</span><br><span class="line">          (conv1): Conv2d(512, 256, kernel_size=(1, 1), stride=(1, 1), bias=False)</span><br><span class="line">          (bn1): FrozenBatchNorm2d(256)</span><br><span class="line">          (conv2): Conv2d(256, 256, kernel_size=(3, 3), stride=(2, 2), padding=(1, 1), bias=False)</span><br><span class="line">          (bn2): FrozenBatchNorm2d(256)</span><br><span class="line">          (conv3): Conv2d(256, 1024, kernel_size=(1, 1), stride=(1, 1), bias=False)</span><br><span class="line">          (bn3): FrozenBatchNorm2d(1024)</span><br><span class="line">          (relu): ReLU(inplace=True)</span><br><span class="line">          (downsample): Sequential(</span><br><span class="line">            (0): Conv2d(512, 1024, kernel_size=(1, 1), stride=(2, 2), bias=False)</span><br><span class="line">            (1): FrozenBatchNorm2d(1024)</span><br><span class="line">          )</span><br><span class="line">        )</span><br><span class="line">        (1): Bottleneck(</span><br><span class="line">          (conv1): Conv2d(1024, 256, kernel_size=(1, 1), stride=(1, 1), bias=False)</span><br><span class="line">          (bn1): FrozenBatchNorm2d(256)</span><br><span class="line">          (conv2): Conv2d(256, 256, kernel_size=(3, 3), stride=(1, 1), padding=(1, 1), bias=False)</span><br><span class="line">          (bn2): FrozenBatchNorm2d(256)</span><br><span class="line">          (conv3): Conv2d(256, 1024, kernel_size=(1, 1), stride=(1, 1), bias=False)</span><br><span class="line">          (bn3): FrozenBatchNorm2d(1024)</span><br><span class="line">          (relu): ReLU(inplace=True)</span><br><span class="line">        )</span><br><span class="line">        (2): Bottleneck(</span><br><span class="line">          (conv1): Conv2d(1024, 256, kernel_size=(1, 1), stride=(1, 1), bias=False)</span><br><span class="line">          (bn1): FrozenBatchNorm2d(256)</span><br><span class="line">          (conv2): Conv2d(256, 256, kernel_size=(3, 3), stride=(1, 1), padding=(1, 1), bias=False)</span><br><span class="line">          (bn2): FrozenBatchNorm2d(256)</span><br><span class="line">          (conv3): Conv2d(256, 1024, kernel_size=(1, 1), stride=(1, 1), bias=False)</span><br><span class="line">          (bn3): FrozenBatchNorm2d(1024)</span><br><span class="line">          (relu): ReLU(inplace=True)</span><br><span class="line">        )</span><br><span class="line">        (3): Bottleneck(</span><br><span class="line">          (conv1): Conv2d(1024, 256, kernel_size=(1, 1), stride=(1, 1), bias=False)</span><br><span class="line">          (bn1): FrozenBatchNorm2d(256)</span><br><span class="line">          (conv2): Conv2d(256, 256, kernel_size=(3, 3), stride=(1, 1), padding=(1, 1), bias=False)</span><br><span class="line">          (bn2): FrozenBatchNorm2d(256)</span><br><span class="line">          (conv3): Conv2d(256, 1024, kernel_size=(1, 1), stride=(1, 1), bias=False)</span><br><span class="line">          (bn3): FrozenBatchNorm2d(1024)</span><br><span class="line">          (relu): ReLU(inplace=True)</span><br><span class="line">        )</span><br><span class="line">        (4): Bottleneck(</span><br><span class="line">          (conv1): Conv2d(1024, 256, kernel_size=(1, 1), stride=(1, 1), bias=False)</span><br><span class="line">          (bn1): FrozenBatchNorm2d(256)</span><br><span class="line">          (conv2): Conv2d(256, 256, kernel_size=(3, 3), stride=(1, 1), padding=(1, 1), bias=False)</span><br><span class="line">          (bn2): FrozenBatchNorm2d(256)</span><br><span class="line">          (conv3): Conv2d(256, 1024, kernel_size=(1, 1), stride=(1, 1), bias=False)</span><br><span class="line">          (bn3): FrozenBatchNorm2d(1024)</span><br><span class="line">          (relu): ReLU(inplace=True)</span><br><span class="line">        )</span><br><span class="line">        (5): Bottleneck(</span><br><span class="line">          (conv1): Conv2d(1024, 256, kernel_size=(1, 1), stride=(1, 1), bias=False)</span><br><span class="line">          (bn1): FrozenBatchNorm2d(256)</span><br><span class="line">          (conv2): Conv2d(256, 256, kernel_size=(3, 3), stride=(1, 1), padding=(1, 1), bias=False)</span><br><span class="line">          (bn2): FrozenBatchNorm2d(256)</span><br><span class="line">          (conv3): Conv2d(256, 1024, kernel_size=(1, 1), stride=(1, 1), bias=False)</span><br><span class="line">          (bn3): FrozenBatchNorm2d(1024)</span><br><span class="line">          (relu): ReLU(inplace=True)</span><br><span class="line">        )</span><br><span class="line">      )</span><br><span class="line">      (layer4): Sequential(</span><br><span class="line">        (0): Bottleneck(</span><br><span class="line">          (conv1): Conv2d(1024, 512, kernel_size=(1, 1), stride=(1, 1), bias=False)</span><br><span class="line">          (bn1): FrozenBatchNorm2d(512)</span><br><span class="line">          (conv2): Conv2d(512, 512, kernel_size=(3, 3), stride=(2, 2), padding=(1, 1), bias=False)</span><br><span class="line">          (bn2): FrozenBatchNorm2d(512)</span><br><span class="line">          (conv3): Conv2d(512, 2048, kernel_size=(1, 1), stride=(1, 1), bias=False)</span><br><span class="line">          (bn3): FrozenBatchNorm2d(2048)</span><br><span class="line">          (relu): ReLU(inplace=True)</span><br><span class="line">          (downsample): Sequential(</span><br><span class="line">            (0): Conv2d(1024, 2048, kernel_size=(1, 1), stride=(2, 2), bias=False)</span><br><span class="line">            (1): FrozenBatchNorm2d(2048)</span><br><span class="line">          )</span><br><span class="line">        )</span><br><span class="line">        (1): Bottleneck(</span><br><span class="line">          (conv1): Conv2d(2048, 512, kernel_size=(1, 1), stride=(1, 1), bias=False)</span><br><span class="line">          (bn1): FrozenBatchNorm2d(512)</span><br><span class="line">          (conv2): Conv2d(512, 512, kernel_size=(3, 3), stride=(1, 1), padding=(1, 1), bias=False)</span><br><span class="line">          (bn2): FrozenBatchNorm2d(512)</span><br><span class="line">          (conv3): Conv2d(512, 2048, kernel_size=(1, 1), stride=(1, 1), bias=False)</span><br><span class="line">          (bn3): FrozenBatchNorm2d(2048)</span><br><span class="line">          (relu): ReLU(inplace=True)</span><br><span class="line">        )</span><br><span class="line">        (2): Bottleneck(</span><br><span class="line">          (conv1): Conv2d(2048, 512, kernel_size=(1, 1), stride=(1, 1), bias=False)</span><br><span class="line">          (bn1): FrozenBatchNorm2d(512)</span><br><span class="line">          (conv2): Conv2d(512, 512, kernel_size=(3, 3), stride=(1, 1), padding=(1, 1), bias=False)</span><br><span class="line">          (bn2): FrozenBatchNorm2d(512)</span><br><span class="line">          (conv3): Conv2d(512, 2048, kernel_size=(1, 1), stride=(1, 1), bias=False)</span><br><span class="line">          (bn3): FrozenBatchNorm2d(2048)</span><br><span class="line">          (relu): ReLU(inplace=True)</span><br><span class="line">        )</span><br><span class="line">      )</span><br><span class="line">    )</span><br><span class="line">    (fpn): FeaturePyramidNetwork(</span><br><span class="line">      (inner_blocks): ModuleList(</span><br><span class="line">        (0): Conv2d(256, 256, kernel_size=(1, 1), stride=(1, 1))</span><br><span class="line">        (1): Conv2d(512, 256, kernel_size=(1, 1), stride=(1, 1))</span><br><span class="line">        (2): Conv2d(1024, 256, kernel_size=(1, 1), stride=(1, 1))</span><br><span class="line">        (3): Conv2d(2048, 256, kernel_size=(1, 1), stride=(1, 1))</span><br><span class="line">      )</span><br><span class="line">      (layer_blocks): ModuleList(</span><br><span class="line">        (0): Conv2d(256, 256, kernel_size=(3, 3), stride=(1, 1), padding=(1, 1))</span><br><span class="line">        (1): Conv2d(256, 256, kernel_size=(3, 3), stride=(1, 1), padding=(1, 1))</span><br><span class="line">        (2): Conv2d(256, 256, kernel_size=(3, 3), stride=(1, 1), padding=(1, 1))</span><br><span class="line">        (3): Conv2d(256, 256, kernel_size=(3, 3), stride=(1, 1), padding=(1, 1))</span><br><span class="line">      )</span><br><span class="line">      (extra_blocks): LastLevelMaxPool()</span><br><span class="line">    )</span><br><span class="line">  )</span><br><span class="line">  (rpn): RegionProposalNetwork(</span><br><span class="line">    (anchor_generator): AnchorGenerator()</span><br><span class="line">    (head): RPNHead(</span><br><span class="line">      (conv): Conv2d(256, 256, kernel_size=(3, 3), stride=(1, 1), padding=(1, 1))</span><br><span class="line">      (cls_logits): Conv2d(256, 3, kernel_size=(1, 1), stride=(1, 1))</span><br><span class="line">      (bbox_pred): Conv2d(256, 12, kernel_size=(1, 1), stride=(1, 1))</span><br><span class="line">    )</span><br><span class="line">  )</span><br><span class="line">  (roi_heads): RoIHeads(</span><br><span class="line">    (box_roi_pool): MultiScaleRoIAlign()</span><br><span class="line">    (box_head): TwoMLPHead(</span><br><span class="line">      (fc6): Linear(in_features=12544, out_features=1024, bias=True)</span><br><span class="line">      (fc7): Linear(in_features=1024, out_features=1024, bias=True)</span><br><span class="line">    )</span><br><span class="line">    (box_predictor): FastRCNNPredictor(</span><br><span class="line">      (cls_score): Linear(in_features=1024, out_features=91, bias=True)</span><br><span class="line">      (bbox_pred): Linear(in_features=1024, out_features=364, bias=True)</span><br><span class="line">    )</span><br><span class="line">  )</span><br><span class="line">)</span><br></pre></td></tr></table></figure><p>模型结构可以总结为层次结构：</p><ul><li>Faster R-CNN<ul><li>(transform): GeneralizedRCNNTransform</li><li>(backbone): BackboneWithFPN<ul><li>(body): IntermediateLayerGetter</li><li>(fpn): FeaturePyramidNetwork</li></ul></l
…
um_features = <span class="number">1</span></span><br><span class="line">        <span class="keyword">for</span> s <span class="keyword">in</span> size:</span><br><span class="line">            num_features *= s</span><br><span class="line">        <span class="keyword">return</span> num_features</span><br><span class="line">    </span><br><span class="line">net = Net()</span><br><span class="line"><span class="built_in">print</span>(net)</span><br><span class="line"></span><br><span class="line"><span class="comment"># Net(</span></span><br><span class="line"><span class="comment">#   (conv1): Conv2d(1, 6, kernel_size=(5, 5), stride=(1, 1))</span></span><br><span class="line"><span class="comment">#   (conv2): Conv2d(6, 16, kernel_size=(5, 5), stride=(1, 1))</span></span><br><span class="line"><span class="comment">#   (fc1): Linear(in_features=400, out_features=120, bias=True)</span></span><br><span class="line"><span class="comment">#   (fc2): Linear(in_features=120, out_features=84, bias=True)</span></span><br><span class="line"><span class="comment">#   (fc3): Linear(in_features=84, out_features=10, bias=True)</span></span><br><span class="line"><span class="comment"># )</span></span><br></pre></td></tr></table></figure><p><strong>在模型中必须要定义 <code>forward</code>函数</strong>，<code>backward</code>函数（用来计算梯度）会被<code>autograd</code>自动创建。 可以在<code>forward</code> 函数中使用任何针对 Tensor 的操作。</p><p><code>net.parameters()</code>返回可被学习的参数（权重）列表和值</p><figure class="highlight pyth
…
